mlp.pth (torch, 439712 bytes, 6 tensors)

fc1.weight f4 [128, 784]
000000 7e 64 02 3d 72 7e 02 3d 38 b7 16 3c 15 ec e5 bc
       0.031834118 0.03185887 0.009198956 -0.028066674
000010 fa 57 10 3c c5 17 89 3c b3 80 88 bc 36 b5 d1 bc
       0.008810038 0.016734967 -0.016662931 -0.025599103
000020 1d b1 a0 bc 67 4e 08 bd ab 87 d8 bc 35 c7 55 3a
       -0.019615704 -0.033277895 -0.026431879 0.00081549893
000030 69 47 45 3c 4f 17 14 bc c2 e4 59 bc 46 ef 5a 3c
       0.012040951 -0.00903876 -0.013299169 0.013362711
000040 d9 f4 7e 3b f1 24 fd bc 87 53 cf 3c 8e 7b 07 3c
       0.0038903265 -0.030901404 0.025308384 0.008269204
000050 1b c1 8b 3c 08 81 2c bc dc 77 de bb 68 09 c0 bc
       0.017059853 -0.01052881 -0.0067891907 -0.023441985
000060 35 ae 52 bb c8 74 00 bd 01 c9 6e bc 59 93 b6 3c
       -0.0032147293 -0.03136137 -0.01457429 0.022287058
000070 6d c2 9e bc 28 08 8a bc 9e 4d 15 3c 00 39 fe bc
       -0.019379819 -0.016849592 0.009112744 -0.03103304
000080 72 d1 09 bd 94 8f c1 bb 72 2e 02 3a 37 6d dd 3c
       -0.03364701 -0.0059070084 0.00049660273 0.027029617
000090 e5 cb 53 3c e7 3c 01 bd 88 fc 92 3c 7a d9 d5 3c
       0.01292703 -0.03155222 0.017942682 0.026104677
0000a0 b3 82 84 3c 94 fa 8a bc 8f 0f 04 bd af df 0a bd
       0.016175603 -0.016965188 -0.0322414 -0.033904728
0000b0 b3 66 0a 3c bd 72 8f 3c a9 1b 2f bc d1 05 c6 bb
       0.008447337 0.017510766 -0.010687747 -0.006043174
0000c0 ee c1 bb ba 3b d8 02 bd ed 0c a7 3c 66 f6 f7 bc
       -0.0014324763 -0.031944495 0.020391906 -0.03026886
0000d0 73 07 04 3d 11 bc 08 3d 82 8b fc 3c 9e 51 af 3c
       0.032233667 0.03338248 0.030828241 0.021401223
0000e0 c8 2c 83 3c 54 98 50 3c 60 03 01 bd 21 f3 0a 3c
       0.016012564 0.01273163 -0.03149736 0.008480818
0000f0 eb c1 cb bb f2 2b bb bc 71 d4 ba 3a 28 1d 9c 3c
       -0.006218185 -0.022848103 0.0014253986 0.019056872
000100 64 1b 66 39 31 35 d9 bc 5e 03 ea 3c 1b f7 06 3d
       0.00021944713 -0.026514621 0.028566059 0.032950502
000110 5a ed cd bb e2 8a 39 3c 0c 0b ac bc 66 10 16 3c
       -0.006284398 0.011324616 -0.021001361 0.009159183
000120 53 b5 5a 3a 3b 29 90 bb 55 a4 c8 ba 11 f1 e3 3c
       0.00083430595 -0.0043994463 -0.0015307764 0.02782491
000130 d2 63 02 bd 19 70 c5 bc 86 ca d2 bb 44 01 09 3c
       -0.031833477 -0.024101304 -0.006432834 0.008362118
000140 e9 ec 9a 3a e5 24 0d 3d 82 fc 68 bc 71 ff 9c 3b
       0.0011819872 0.034459013 -0.014220359 0.004791193
000150 6f cf 0b 3d e4 13 c9 bc 93 88 35 3b a7 43 5d bc
       0.03413337 -0.024545617 0.0027699813 -0.013504899
000160 5b e5 83 3c 06 ca dd 3a ab 21 b5 3c 1d 96 5a bc
       0.016100576 0.001692117 0.02211078 -0.013341454
000170 a0 bc f4 3c 32 60 e0 bc c2 e7 d5 3c 7f d9 96 bc
       0.0298751 -0.02738962 0.026111487 -0.018414257
000180 ae f0 cc 3c 71 95 12 bb 06 8f fb 3c 31 37 2e 3c
       0.025017109 -0.0022366906 0.030707847 0.010633276
000190 33 ca 51 3c 48 2a 79 3c c3 c9 e0 3b 3a f0 82 ba
       0.012804556 0.015207835 0.0068599894 -0.0009989806
0001a0 01 07 84 3c 18 ed b0 3c e5 c8 07 3d 51 c3 0d bc
       0.016116621 0.02159743 0.033150572 -0.008652524
0001b0 ba 17 06 bd dc c9 b4 3c 83 41 f4 bb 0d a9 82 3a
       -0.03273747 0.02206891 -0.0074540987 0.0009968594
0001c0 19 5b 02 bc d5 32 57 bc 4b d4 54 3c 49 1f d7 bc
       -0.00795629 -0.013134678 0.012990068 -0.026260035
0001d0 67 e7 cd 3c 70 a2 cc 3c 05 3e 8a 3c 4a 5f 0d bd
       0.025134755 0.0249798 0.016875276 -0.034514703
0001e0 70 45 e3 bc ad bf d1 3c 34 bb 07 3c 63 75 c6 3c
       -0.027743071 0.025604093 0.008284379 0.024225896
0001f0 89 b5 3d bc b0 2b 0f bb 96 66 c7 bc 12 dd b2 bc
       -0.011578926 -0.0021846108 -0.024340909 -0.02183393
000200 05 02 4b bc cb 6f 0c bb 6e b4 c2 bc 86 84 4a 3c
       -0.012390618 -0.0021428938 -0.023767676 0.012360698
000210 88 05 84 ba e0 e5 1a bd 2b 47 b8 bc 85 72 a5 bb
       -0.0010072449 -0.037816882 -0.022494873 -0.005049052
000220 20 b5 41 3c 81 c7 21 bc 78 08 34 3c 60 e5 04 bd
       0.011822969 -0.009874226 0.010988347 -0.03244531
000230 a3 e1 d7 3b 3e 1b bc 3c c6 c9 91 bc e3 f4 37 bc
       0.0065881773 0.022962209 -0.017796408 -0.011227819
000240 e4 b1 aa bc f3 4c 9d bc 3c 43 bd 3b a0 56 81 bb
       -0.020836778 -0.019201731 0.005775837 -0.003947094
000250 66 59 6c ba 4e 6d ed 3c 41 0b 05 bd b5 8a d1 bb
       -0.0009016007 0.028982785 -0.032481436 -0.006394709
000260 36 fc ac bc 50 f1 ab bc a5 24 9b bd a7 34 02 bd
       -0.021116357 -0.02098909 -0.07575349 -0.031788494
000270 a4 76 3d bc a6 9d 53 bd 25 bd 33 bc 0d 1f f6 bc
       -0.011563931 -0.051664017 -0.010970389 -0.030044103
000280 cd 80 30 bd 7a f7 5b 3c 87 ea c4 3c cf ef cf 3b
       -0.043091584 0.013425702 0.024037613 0.006345726
000290 37 db 54 bc e5 4a c6 3c d6 b3 70 bc d1 78 d8 ba
       -0.012991718 0.024205634 -0.014691314 -0.0016515498
0002a0 01 0c f8 bc f4 ec 71 3b 30 20 01 bd 2c c4 d4 bc
       -0.030279161 0.0036914917 -0.031524837 -0.025972448
0002b0 af 15 87 bc 77 89 a7 3c d2 4c 92 3b 9a e1 16 3d
       -0.016489832 0.02045129 0.004464724 0.036836244
0002c0 c7 5d cb 3b 03 a7 93 3c 7a 0d 57 3b 9f 9f d0 bb
       0.0062062475 0.018023973 0.003281443 -0.0063666846
0002d0 a1 89 06 bd 83 03 c3 b9 f1 80 4a bd 23 22 67 bc
       -0.032846097 -0.00037195915 -0.049439374 -0.01410726
0002e0 13 b6 6a bc 74 27 40 3b 71 6a a5 bc 11 64 78 bc
       -0.014325636 0.002932039 -0.020192357 -0.015160576
0002f0 63 b6 1d bd c0 ec 00 bc ac ac 03 3c f2 0b 0a bd
       -0.038504016 -0.007868946 0.008036774 -0.0337028
000300 b6 52 c5 bb 4a 48 fe bc 73 46 73 bc ef 6a ee bc
       -0.006021823 -0.03104033 -0.014848339 -0.029103724
000310 48 bd 49 bc 1d dc 9c 39 7a 3d 06 3d 61 c4 7a 3c
       -0.012313195 0.00029918636 0.032773472 0.015305609
000320 12 9f 68 ba 2b 16 3f 3b 0c dc 73 bc fd 5a f5 3b
       -0.0008873801 0.00291575 -0.014884006 0.0074876533
000330 ac a6 00 bd 6f 78 0e 3c ab 4f d7 bc 45 ee 73 bc
       -0.03140895 0.008695706 -0.026283106 -0.014888351
000340 ce 7b 0c 3d a3 0f ba 3c e3 4a f9 3c 4c 2f 80 3c
       0.034297757 0.022712534 0.030431217 0.015647553
000350 42 e1 01 3b b6 41 bb 3c e7 c4 a8 3b 64 b9 20 bd
       0.0019818102 0.022858482 0.0051504257 -0.039239302
000360 e8 36 32 bd 1e 35 39 bd 36 a2 3a 3c cf 27 24 3c
       -0.043509394 -0.045216672 0.011391213 0.010019257
000370 e6 5e 03 bd c7 fa 7c 3c 3f 34 81 ba 27 98 8c 3c
       -0.032072924 0.015440649 -0.000985749 0.017162396
000380 0c 19 30 3b 52 0e ac bc d2 d4 5c bc f1 a4 93 3b
       0.0026870398 -0.021002922 -0.013478475 0.0045057465
000390 19 94 97 3c 8b f6 cc 3c a2 2c bd bc c1 2f fc bc
       0.018503236 0.025019905 -0.023092572 -0.03078449
0003a0 7d ca 45 bd 9e ed 14 bc b7 73 35 bd a1 96 f8 bc
       -0.04828881 -0.0090898555 -0.044299807 -0.030345263
0003b0 dc 48 e9 3c 93 26 d9 bc bb a5 18 3d 7e 31 39 3d
       0.028477125 -0.026507651 0.037267428 0.045213215
0003c0 85 bc 5c 3c c2 77 5f 3c eb a1 fa bc d2 7b f6 bc
       0.013472681 0.013639392 -0.030594787 -0.030088339
0003d0 db 40 20 bd b8 b7 fa bc 73 d2 03 bd d8 73 ff bc
       -0.03912435 -0.030605182 -0.032183122 -0.031183168
0003e0 33 c1 7a bc a9 80 ca bc 3d 81 c8 bb ed 8f fa 3b
       -0.015304851 -0.024719553 -0.006118922 0.007646552
0003f0 db 63 10 bd 7a 55 1f bc 3c 36 91 3a b2 40 2b 3c
       -0.03525148 -0.009724969 0.0011078785 0.010452436

fc1.bias f4 [128]
000000 3a 95 d5 bc 38 3e a6 3c 7f 25 b7 bc dc 96 c6 3c
       -0.026072133 0.02029334 -0.022356747 0.024241857
000010 c3 e8 a1 3c 7a f7 47 bc 74 83 8d b9 4f 0b fd 3b
       0.01976431 -0.012204999 -0.00026991556 0.0077222954
000020 d3 eb d0 bc 09 5f da 3c b4 51 a5 bb 1d 57 d0 bc
       -0.025503075 0.026656644 -0.00504514 -0.025432164
000030 3f f0 f4 bc 81 88 7e bc b4 ea 09 ba 83 43 d4 bc
       -0.029899715 -0.015535475 -0.0005261109 -0.025911098
000040 c5 e4 56 bc 68 82 bf bc 02 44 c8 3b ee 1d c2 3c
       -0.013116066 -0.023377612 0.006111623 0.023695912
000050 f9 9d 0d bd 0a bc 99 3c fc 1b 4e ba ab b0 e9 bc
       -0.034574483 0.018766422 -0.00078624464 -0.028526625
000060 bb d9 da ba 6a aa 1d bc af c7 f6 3c 9f 68 c9 bc
       -0.0016696969 -0.009623149 0.030124513 -0.02458602
000070 bd 85 97 bc 0a 53 7a bc a0 6c 96 bc 46 83 00 3d
       -0.018496389 -0.015278587 -0.018362343 0.031375192
000080 3d 06 70 3c a1 a0 a4 bc 0e e8 65 3c 3f b0 2b bc
       0.014649925 -0.020096125 0.014032377 -0.010479032
000090 9b 18 00 bd 5e 0e b3 3c ce b9 17 3b 1a ec d5 3c
       -0.031273466 0.021857437 0.002315152 0.026113559
0000a0 1b 55 c4 bb ea cb 88 3c 64 15 c7 bc f5 db c6 3c
       -0.0059915907 0.016698796 -0.024302192 0.024274806
0000b0 10 85 09 bc cc bc 92 3c 7d 18 61 bc 18 e3 21 ba
       -0.008393541 0.017912291 -0.013738749 -0.0006175502
0000c0 40 95 a2 3c f8 30 29 3c bb b3 b0 3c 55 44 f8 bc
       0.019846559 0.0103266165 0.021570077 -0.03030602
0000d0 c2 68 e1 3c 0a 5e 82 3c e6 f8 93 bc 0f 70 52 3c
       0.027515773 0.015913982 -0.01806302 0.0128441
0000e0 54 43 c0 bc c6 33 05 3d 65 0c 05 bd 57 bb 5d 3c
       -0.023469605 0.032520078 -0.032482523 0.013533435
0000f0 b4 62 ca 3c f3 de fc bc 1d 01 03 3d 53 ed 7d 3c
       0.024705268 -0.03086803 0.031983484 0.015498477
000100 7e df 6d bc 91 52 c6 3c ec b7 09 bd f6 a4 b6 bc
       -0.014518617 0.024209293 -0.033622667 -0.022295456
000110 d1 06 f2 3c e9 cf 08 3d 90 40 70 bb f0 d3 a3 3b
       0.029544266 0.033401404 -0.0036659576 0.00499963
000120 ef a9 b1 3c 50 69 dc 3c c4 20 ea bc 20 c9 84 bc
       0.021687476 0.026905686 -0.028580077 -0.016209185
000130 46 af ee 3c ce 12 98 3c 04 78 e0 bc 11 38 a1 3c
       0.029136311 0.018563654 -0.027400978 0.019680055
000140 b9 13 02 3c a5 18 74 3c 54 ee 0c bd de 08 ac bb
       0.007939273 0.014898454 -0.034406975 -0.0052500805
000150 3f 08 0c bd e4 f2 64 3c 40 09 e0 3c 31 5f 97 3c
       -0.03418755 0.013973925 0.02734816 0.018478008
000160 f4 07 e2 3b 2e 2e 0e 3d bb c1 0b 3d ba 36 d8 3c
       0.0068979207 0.03471201 0.034120303 0.026393283
000170 40 5c 34 3a 5f 60 e8 bb 9d c8 fc bc 02 33 76 bc
       0.00068802014 -0.0070915665 -0.030857379 -0.01502681
000180 91 f0 54 3a 2e a2 68 3b 62 b2 a3 3c a6 6a c2 3c
       0.00081230054 0.0035497057 0.01998252 0.023732495
000190 74 c4 29 bc 6e 2a 6b 3c 6f 2e 0f 3d db 64 1c 3c
       -0.0103617795 0.014353378 0.034956392 0.00954553
0001a0 90 19 bd 3c 54 ab 73 3c 8a 6f a7 bc b0 20 85 bc
       0.023083478 0.014872391 -0.020438928 -0.016250938
0001b0 39 c2 9c 3b db 97 e8 3c a7 63 3a bc 70 7a c1 3a
       0.0047838953 0.028392723 -0.011376298 0.0014761221
0001c0 54 ab d7 3c 53 1e d3 bc d0 ae fb bc 88 8b 32 bc
       0.026326813 -0.025771296 -0.030723006 -0.010897525
0001d0 58 75 8e 3c 69 df ed bc d0 14 6e ba 13 03 8c bc
       0.017389938 -0.029037194 -0.0009082081 -0.01709131
0001e0 63 cc f2 bb 66 c5 00 bd 3a b7 a1 bb dc 86 25 ba
       -0.0074096187 -0.031438254 -0.0049351724 -0.0006314346
0001f0 e0 e7 94 3c b2 60 db 3c c8 f6 df 3c fd 6c bb bb
       0.018176973 0.026779506 0.027339354 -0.0057197795

fc2.weight f4 [64, 128]
000000 b1 18 0f bd 33 09 ca bb 04 b9 fb 3d bf 91 83 3d
       -0.034935657 -0.0061656474 0.12291148 0.06424283
000010 19 a8 08 be a4 07 6c 3d dc 8e ce 3c f3 11 37 3b
       -0.13345374 0.057624474 0.025214605 0.0027934283
000020 54 1e 00 3e ee 66 f4 3c eb 49 7e bd 8e 06 68 3d
       0.1251157 0.029834237 -0.062082212 0.056646876
000030 0c ca a9 bc 42 bf 89 3c e0 8c bb 3c f2 bf 25 3c
       -0.020726226 0.016814832 0.022894323 0.010116564
000040 57 65 ab bd d9 be 95 bc 48 bd 35 3c df 16 11 3d
       -0.083689384 -0.01827948 0.011092491 0.035422202
000050 ca 84 a5 bd f9 7c db 3d 2c eb 09 3c 24 d4 b3 bd
       -0.08081968 0.10717196 0.008417886 -0.08780697
000060 ef 1a 1a 3e f7 dc 61 bc cd 77 0b be 18 0c 27 3e
       0.15049337 -0.013785592 -0.13619919 0.16313207
000070 e0 63 34 3c 22 f8 3c 3b c7 f0 66 3d ca 7c 97 bd
       0.01101014 0.0028834422 0.056381967 -0.073968485
000080 ef 27 76 bd 24 ac a3 3c 43 c4 a2 bd ec 94 08 3e
       -0.060096677 0.019979544 -0.0794759 0.13338059
000090 ea 2d 99 bd f5 ad 74 3d f5 23 32 3d 0b fb 0f bc
       -0.074794605 0.05973621 0.043491323 -0.008787881
0000a0 ce 1d a0 bc 98 85 99 bd f5 c5 89 3d 32 2d 1c 3d
       -0.019545462 -0.07496184 0.067272104 0.03812904
0000b0 14 22 19 3a a2 6c 20 be ff a3 ca 3c b8 cf 05 3d
       0.0005841565 -0.1566644 0.024736403 0.0326688
0000c0 41 2c 5a 3c e1 40 98 3d 3a ad a2 3b 20 18 f0 bb
       0.013316215 0.0743425 0.004964498 -0.0073270947
0000d0 75 4d 66 3c cd ef 25 bd 0e a2 04 3d 23 45 66 3d
       0.014056553 -0.040511895 0.03238111 0.056218278
0000e0 41 60 54 bd 91 2a 00 bd c4 ca 87 3b 63 c9 af 3d
       -0.051849607 -0.031290594 0.0041440446 0.08583333
0000f0 8c 0f 43 3a b8 82 8d 3d f1 1b 55 3e 15 bc e9 3d
       0.00074409763 0.06909698 0.2081144 0.11412827
000100 f0 15 f3 3d 64 be ee 3d 70 83 09 be 7a 46 b1 3c
       0.118694186 0.11657408 -0.13429046 0.021640051
000110 36 07 7f 3e 31 29 1a be 44 3c dd bd 97 e2 5a bd
       0.24905095 -0.15054776 -0.108025104 -0.05343875
000120 91 49 ea 3b 1c 35 ee bd 98 97 37 3e 79 0d cc 3d
       0.007149883 -0.116312236 0.17928922 0.09963507
000130 a9 1b 56 3d 7b 66 83 bc 30 ac 9b bd 2a ce a4 bb
       0.052272473 -0.016040077 -0.076012015 -0.0050294595
000140 54 22 9a bd 23 f9 e6 bd a7 b7 32 3d 29 73 de 3d
       -0.07526079 -0.11277988 0.043632176 0.10861809
000150 83 85 93 3d 3d 1c 26 3d 2f 5d 12 3e 97 82 6e bb
       0.072032 0.040554274 0.14293359 -0.0036393756
000160 50 91 19 3e 88 36 de 3c 26 23 98 3d 4c 43 46 bd
       0.14996839 0.027125612 0.07428579 -0.048404023
000170 ce 5b 02 3e d1 7a a4 3d 0c a1 52 bb 97 97 5b bd
       0.12730333 0.08031238 -0.0032139448 -0.053611364
000180 db c2 9e bd 14 60 59 3e 08 74 35 3d c2 57 05 3e
       -0.077520095 0.21228057 0.04430011 0.13021758
000190 57 92 8c 3d 8c 98 ba bb ea 91 cf 3c 8a 12 0e be
       0.068638496 -0.0056944545 0.025338132 -0.1387426
0001a0 84 a1 12 3d be 16 4d bd ce 69 ae bd 06 b6 dd bd
       0.035798565 -0.050070517 -0.085162744 -0.10825734
0001b0 55 87 a6 3d fe 77 c8 bc 54 3d e1 bd 6e d1 f9 3d
       0.08131281 -0.02447128 -0.109980255 0.12198149
0001c0 99 cd 1c bd ca 3e e5 bb 89 47 8b 3d 4d 8d 29 bc
       -0.03828201 -0.0069960104 0.068007536 -0.01034863
0001d0 3e 1f 48 bd 77 e5 b3 3c da 61 47 3a ba 90 df bd
       -0.04885792 0.021960003 0.00076058286 -0.10916276
0001e0 a6 40 75 bd 63 d7 9d 3b 9e 8a e6 3b 8e 7c b7 bc
       -0.059876107 0.004816936 0.0070355674 -0.02239826
0001f0 03 1b 22 3d 76 1d 06 3e fa 51 34 be 56 b1 60 3b
       0.03957654 0.13097176 -0.17609397 0.0034285388
000200 d5 1f c3 bd fe 97 9b bc 65 a6 13 bd d7 1f 5d bd
       -0.09527556 -0.018993374 -0.036047358 -0.053985443
000210 44 9e a4 3d be 75 81 bd 47 e0 88 3d 83 f9 fe bc
       0.08037999 -0.06321286 0.066834025 -0.031124836
000220 31 81 09 3d 13 0c 97 3d 17 ea bc 3d f1 a2 36 3d
       0.033570472 0.0737535 0.092243366 0.044588987
000230 5d 90 84 3b 86 cd e4 bb 0e 72 02 bc 42 67 9b bd
       0.0040455298 -0.006982508 -0.007961763 -0.07588054
000240 21 9d a8 bd 49 99 19 bd de 8f be 3c 9b 28 6d 3e
       -0.08233095 -0.0374997 0.02326196 0.23160021
000250 d2 0d 02 bd 64 b1 ba 3d a5 27 b2 3b 27 a7 25 bd
       -0.03175146 0.09115866 0.005436855 -0.040442612
000260 63 7a 94 3d 42 c0 f0 bd 0c 5f 28 3d 74 af 36 bd
       0.07249906 -0.1175542 0.04110627 -0.04460092
000270 43 23 88 3d 29 26 37 3d 60 b2 ab 3d 3d 20 c1 bc
       0.06647351 0.044714127 0.08383632 -0.023574943
000280 73 4f 2a 3d 94 35 f9 bc a5 32 0b 3e a5 f4 39 be
       0.041579675 -0.030421056 0.13593538 -0.1815973
000290 39 bd ba bd fe d1 f2 3d e2 99 21 bc eb 5d 5e 3d
       -0.091181226 0.11856459 -0.009863349 0.054288786
0002a0 ec 03 bc 3d 55 de ba bd 9c 76 29 bd 07 67 c2 3c
       0.091804355 -0.09124438 -0.04137288 0.023730768
0002b0 ac e5 e8 bb bc 19 c2 3d de bd eb 3d ba fa 53 3e
       -0.007107457 0.09477565 0.11510824 0.20701113
0002c0 a5 5b c4 bd 12 4d 79 bd 41 66 04 3e 96 22 01 bb
       -0.09587792 -0.060864516 0.12929632 -0.0019704453
0002d0 d4 48 1a bd 44 4a 2a 3e 55 16 96 bd 77 36 66 3b
       -0.03766711 0.16629893 -0.07328478 0.0035127678
0002e0 45 e6 92 3d e4 14 67 3d b9 09 94 bd 30 82 e8 bd
       0.07172827 0.056416407 -0.07228417 -0.11352956
0002f0 87 34 ce 3d ef 62 87 3d e5 e4 c4 bd 21 63 1a 3e
       0.100686125 0.06610667 -0.09613971 0.15076877
000300 96 90 2c bd ee 36 7a bd 53 c7 6a 3d f8 d0 86 ba
       -0.042130075 -0.06108754 0.057318997 -0.0010285666
000310 84 dd fd 3d 54 ba 96 3d e4 8d 2c bd 29 f8 22 3e
       0.123957664 0.07359758 -0.042127505 0.15914978
000320 22 01 ce 3d 80 9d 8a 3c a3 11 10 be 73 01 f4 bd
       0.1005881 0.016920805 -0.14069228 -0.11914339
000330 22 32 fc bc 11 3b ca bc c3 8e c2 bd 37 ef 5d 3d
       -0.030785624 -0.024686368 -0.09499886 0.05418321
000340 74 fb 46 3b 2d 76 8b bd 1f d0 ab bd d0 73 7c 3d
       0.003036228 -0.068096496 -0.08389305 0.061633885
000350 df 8e 81 3d d0 ac 13 bd 92 3f 29 be 95 c4 91 bc
       0.063260786 -0.03605348 -0.16528156 -0.017793933
000360 27 39 b7 bd 72 82 d6 3c 1c e9 01 bd 90 a4 dd 3d
       -0.08946448 0.026185248 -0.03171645 0.108224034
000370 17 93 b9 bd 18 29 3f 3c 14 e8 fd bc d9 81 12 be
       -0.09061258 0.011667512 -0.030994453 -0.14307345
000380 d0 b9 54 3c 3f eb 92 bc 4d 87 8d 3d 5b 26 c1 bd
       0.012983754 -0.01793444 0.06910572 -0.09431144
000390 5d 54 8c bb ca 1f 0c 3e 4a 9f a1 3d 4b d0 f5 3d
       -0.004282518 0.13684002 0.0789171 0.12002619
0003a0 c3 96 7f bd 64 b3 07 3e 77 65 07 3e bf ea a2 bd
       -0.062399637 0.13252026 0.132223 -0.079549305
0003b0 0b f2 90 bd 87 71 17 bd b5 2a 20 3c 34 2f 05 3c
       -0.07077416 -0.036973502 0.009775807 0.00812893
0003c0 84 87 f2 3a 82 65 ef 3d 0f 0b c8 bd f0 09 8f 3d
       0.0018503522 0.11689283 -0.09767734 0.06984317
0003d0 9c b1 aa 3d a9 5c ee 3d e8 29 02 3e b3 db e8 3d
       0.083346575 0.11638767 0.12711298 0.11370029
0003e0 2f b3 44 3c d0 a9 31 3d c7 f7 2b 3e 5f 91 e6 3d
       0.012005611 0.043374836 0.16793738 0.11258196
0003f0 7d ec 56 bd f4 8b 35 3d 79 3d 8d bc 14 8b 94 bd
       -0.052471627 0.044322923 -0.017241227 -0.072530895

fc2.bias f4 [64]
000000 53 18 a7 3d 79 56 d1 3d 2d de 62 3d a9 26 03 3c
       0.08158936 0.102215715 0.055387665 0.008004823
000010 fc 7c 3c bb 60 ae c7 3d ef 24 6f bd 63 26 bf 3d
       -0.002876102 0.09750056 -0.058384832 0.093334936
000020 df 14 9d 3d 1c 2f 04 bd 27 dd f5 bc 73 bd 7b 3c
       0.076699965 -0.03227149 -0.03001268 0.015364992
000030 c0 d1 90 3d d2 16 a7 3d 08 62 bb 3d 01 e3 8c bd
       0.07071257 0.081586495 0.09149557 -0.06879235
000040 d0 fd 98 3c 33 d3 40 3d 97 91 7a 3c 27 92 27 bd
       0.018675715 0.047076415 0.0152935 -0.040910866
000050 79 48 81 3c 61 14 b5 3d 78 26 85 3d b0 ba 7b bc
       0.015781628 0.088417776 0.06501478 -0.015364334
000060 eb 6b 2e bd b6 dd 9b 3d d7 ba 85 3d ff 7a 75 3d
       -0.042583387 0.076106474 0.065297775 0.05993175
000070 47 62 9b 3b e0 e8 ab 3c a6 fb 07 3d b1 56 9e bc
       0.00474194 0.020985067 0.033198975 -0.019328447
000080 c2 58 3b bd 43 f3 1f bd 7f 11 51 3d 53 0b 13 3c
       -0.045738943 -0.03905035 0.051042076 0.008974868
000090 b5 7e 24 3d d6 af 27 3d 42 3a 16 3b 2d 0d aa 3d
       0.0401599 0.040939175 0.0022922908 0.08303294
0000a0 8d f8 b3 bd b8 ac b1 3d 72 ca 7b bd 81 bd 48 3d
       -0.08787642 0.086755216 -0.061472364 0.04900885
0000b0 54 24 5f bd cd 3b b8 bc e6 35 79 bd 90 d9 7e 3c
       -0.054478005 -0.022489453 -0.060842417 0.015554801
0000c0 c5 b0 a9 3d 6d 33 ac bd 25 6a 3c 3d 95 f2 c9 3b
       0.08285669 -0.08408246 0.045999665 0.0061629512
0000d0 10 eb 1c 3d fe c5 21 bd 7f 86 1f bd be a5 57 3d
       0.03831011 -0.03949546 -0.038946625 0.0526483
0000e0 12 92 8a 3d d0 54 c5 3c 9a 04 1f 3d 81 49 12 bd
       0.06766142 0.024088293 0.038822748 -0.03571463
0000f0 33 af 2d 3d 32 cc 4e 3d e2 f8 5f 3d d8 d9 a7 bc
       0.04240341 0.050487705 0.054680713 -0.020489618

fc3.weight f4 [10, 64]
000000 70 62 cb be b7 e2 b7 3e 88 25 16 bb b5 f7 ae 3e
       -0.3972354 0.35915157 -0.0022910554 0.3417336
000010 e2 ee 14 bd 75 89 8a bd 18 30 94 3c 3f 0d 81 be
       -0.03636063 -0.06764499 0.01808934 -0.25205418
000020 b0 b0 79 3e be 06 2e 3d 5d 08 2e 3d 29 33 d1 3d
       0.24383807 0.0424869 0.042488445 0.10214836
000030 21 12 27 bd c0 f4 4c 3e 4b 9f 59 3e 8e 57 9e bd
       -0.040788773 0.2001524 0.21252172 -0.077315435
000040 38 91 3e 3d 78 78 f8 3d f0 47 db bd 9f 21 fa bd
       0.04652521 0.121323526 -0.1070708 -0.12213444
000050 50 bb 41 3d e9 ce d3 3c 51 f1 39 bd 7d 0f 80 be
       0.047297776 0.025855498 -0.045396153 -0.25011817
000060 ea c4 93 3e a8 f9 82 3e 96 f7 42 3d 81 19 7e bd
       0.2886117 0.25581098 0.047599398 -0.06203604
000070 26 82 e9 bd 13 fd 2e be 1f ca 87 3b af a7 1e be
       -0.11401777 -0.17088728 0.0041439678 -0.15493654
000080 e8 41 43 3d e8 ef bd bc e0 dd de bd 65 44 ad bc
       0.047670275 -0.023185685 -0.10882163 -0.021150777
000090 bc ee 9e 3d d4 9c 8f be fa 17 48 3a 09 22 10 3e
       0.07760379 -0.28049338 0.00076329673 0.14075483
0000a0 0a 68 cc bd fc e9 35 be fb 15 82 be a5 03 1e bc
       -0.099807814 -0.17765039 -0.25407395 -0.009644424
0000b0 0f f6 d1 bd 24 1f 96 3b 32 f3 0f 3e 53 8b 16 3c
       -0.1025201 0.004581349 0.14057615 0.009188491
0000c0 74 14 c5 bd 1f 73 ab bd 98 db ab bd e1 e9 2a be
       -0.09623042 -0.08371567 -0.083914936 -0.1669078
0000d0 1f b7 fc bd 8d 78 6f bd b7 6e a8 bd f0 61 42 bd
       -0.12339615 -0.058464576 -0.08224242 -0.04745668
0000e0 a1 e7 d2 bd ed 12 d4 bd 78 86 c5 bd 07 f0 e1 bd
       -0.10298086 -0.10355172 -0.096447885 -0.1103211
0000f0 23 c9 2d ba 64 3f bb bd d0 02 f5 3d a7 8c b3 be
       -0.0006629398 -0.0914295 0.11963427 -0.35068247
000100 7f 98 8f 3e 8a 0e 96 be 52 da f7 3c d8 bf b9 3d
       0.28046033 -0.29307967 0.03025547 0.090697944
000110 71 33 cc bc e8 71 7e 3d 91 50 83 bd c7 94 58 3e
       -0.024926873 0.06212035 -0.06411851 0.21150504
000120 c6 dc 66 bc bb 5e fa bd a6 aa e0 bd 3f e4 0e 3e
       -0.014090722 -0.122251 -0.109700486 0.13954256
000130 9b 59 f4 bd 55 11 75 be 7b 16 28 3c ed 70 8a 3c
       -0.119311534 -0.23932393 0.010259266 0.01689955
000140 79 22 91 be ac 39 6b be ec c1 9a bd e2 c9 cb bd
       -0.28346613 -0.22971219 -0.07556519 -0.099506155
000150 f9 e2 11 bd 00 bc 83 3e 35 3a 8a 3d 7a f4 9d 3e
       -0.03561685 0.2572937 0.06749383 0.30850583
000160 c1 f1 5b be d0 b8 b6 3d 44 60 aa bd c7 db a9 3e
       -0.2147894 0.08921969 -0.083191425 0.3317549
000170 09 4b 39 3e f9 57 43 be 3f 0c 81 be f6 18 c9 bb
       0.1809503 -0.19076528 -0.25204656 -0.006137009
000180 94 2c 7b bc eb ae f6 3c e3 c9 04 be 89 9f 83 be
       -0.0153304525 0.030112704 -0.12967639 -0.25707653
000190 ae dd 32 be cf bd 9e 3c 62 e3 57 bd cd 3a 10 be
       -0.17467377 0.019377617 -0.052707084 -0.1408493
0001a0 5e 08 15 be 52 f7 7c be 23 74 00 be 76 e7 14 3d
       -0.14553973 -0.2470372 -0.12544303 0.03635355
0001b0 99 9b 49 bd 99 09 0a 3e 39 ee 93 3d b5 f6 24 3d
       -0.049220655 0.13480224 0.07223172 0.04027434
0001c0 53 08 2d 3d 1d 16 3d 3e 38 34 a6 bc 7d d8 84 3e
       0.042244267 0.18465467 -0.020288572 0.25946417
0001d0 6b 0a e3 3d 8e 77 c3 3d 1b 02 94 bd 74 96 26 3c
       0.110859714 0.095442876 -0.07226964 0.010167707
0001e0 40 75 b3 3d 4c e8 79 3d ec 03 b7 bd ff 60 ee bc
       0.08762598 0.06101255 -0.08936295 -0.029098986
0001f0 95 1e 69 be 0f 5b ed 3d fd f6 de bd 60 72 e1 3c
       -0.22765572 0.11589634 -0.10886953 0.027520359
000200 8b 16 de 3e 55 57 04 3d 41 42 87 3c c6 70 cf 3c
       0.43376574 0.03230985 0.016511085 0.02532233
000210 d6 03 64 bd 06 ab 68 3b 7f bc f4 bd 64 75 4f be
       -0.05566772 0.0035502329 -0.11950015 -0.20259625
000220 77 90 10 3e 5b a0 7c bd db 34 01 bd c3 78 a7 3e
       0.14117609 -0.061676364 -0.031544548 0.3270932
000230 26 5a a6 3e 98 2e c4 3d da b1 08 bb ad 15 08 bd
       0.32490653 0.095791996 -0.002085796 -0.033223797
000240 4e 44 68 be c6 27 b2 bd ca 5c 77 3c 73 a9 b9 bd
       -0.22682306 -0.086989924 0.015097806 -0.09065523
000250 1b 54 08 bb a4 7d 82 3e 11 f0 e2 3c 7b 0b 12 be
       -0.0020802084 0.2548648 0.027702363 -0.14262192
000260 8b 7e 9c 3e 11 b2 37 bd f6 9f 9d bd f9 3e 8a be
       0.30565295 -0.04484755 -0.07696526 -0.2700117
000270 5e ca 65 be 13 e5 15 be 68 2a 5d 3e d4 10 24 bd
       -0.22440478 -0.14638166 0.21598208 -0.04005511
000280 7a da ee bb 61 b0 a8 3d 5d e4 1a 3d d0 0c 28 3e
       -0.007289228 0.082367666 0.03781544 0.16411138
000290 63 ca 31 3d 89 21 7c bd bc c0 77 bd 34 7a 7e 3d
       0.0434059 -0.06155542 -0.06048654 0.06212826
0002a0 e2 8c ad 3e 1d aa 65 bd be b2 81 3d 32 41 dd 3d
       0.33896548 -0.056070436 0.063329205 0.10803451
0002b0 a6 1e af 3c fc 92 c5 3d f9 ba ff bd 5c 51 ef bc
       0.021376919 0.09647176 -0.12486834 -0.0292136
0002c0 f0 25 22 be 8c 7f fe 3d 0e e5 96 3d 96 0d c3 3d
       -0.15834785 0.124266714 0.073679075 0.09524076
0002d0 b6 8d e2 3d 4f 86 26 3c 5e ba 2a 3e 77 8a 9a 3d
       0.110621855 0.010163858 0.16672656 0.07545941
0002e0 9b 4e 8f 3d 3d 39 e2 bc fb c5 06 be 56 fe c2 bd
       0.06997415 -0.027615184 -0.13161461 -0.09521167
0002f0 40 f7 36 be 79 a7 5d be 8c 78 84 be 66 09 03 be
       -0.17867756 -0.21645917 -0.2587322 -0.12796554
000300 2c 80 13 3e 79 63 86 bd 87 c7 9b be 2c 7d 92 3d
       0.14404362 -0.06561942 -0.30425665 0.07152781
000310 53 79 d4 bc fc 47 6b be 2b 64 1a 3a 3c 8e c0 bd
       -0.025936758 -0.22976679 0.000588956 -0.09402129
000320 24 f5 61 3d 72 96 ac bd 6e a3 dc bd e3 9c 62 be
       0.055165425 -0.08427133 -0.10773359 -0.2213016
000330 fa 1e a9 3b 4e b3 31 be a0 69 38 3e 87 f4 e8 3d
       0.0051611634 -0.17353556 0.18009043 0.11374765
000340 33 b6 6b be a3 88 f7 bb 12 13 e8 39 74 84 39 bd
       -0.23018722 -0.00755413 0.00044264697 -0.045292333
000350 99 c4 67 3d 6b 8f c4 3e 5d 24 ad b9 54 21 4a be
       0.056583975 0.3839067 -0.00033024224 -0.19739276
000360 fc 3e 17 bd de b9 15 be dc 25 6a bd b4 31 0e 3e
       -0.0369253 -0.14621684 -0.05716501 0.13886148
000370 79 df 80 3d 12 c7 0e be 60 7c a7 3e a5 99 10 3e
       0.06292624 -0.13943127 0.32712078 0.1412111
000380 2e c7 db 3d b6 db a7 ba 44 1f 4e 3e ab c2 58 3e
       0.1073135 -0.0012806568 0.20129114 0.2116801
000390 3f 5f 33 be 9e c7 69 3d 47 2e cc 3d f8 24 06 3d
       -0.17516802 0.057075135 0.09969764 0.0327501
0003a0 a0 13 aa bd 22 67 80 3e 2f 69 8e 39 e9 64 67 bd
       -0.083045244 0.25078684 0.00027162718 -0.05649272
0003b0 c6 8d 31 3e b3 91 6a 3c d9 69 6f 3d 90 d5 a3 bc
       0.17339239 0.014316964 0.058450554 -0.019999295
0003c0 ad 6d 63 be fe c6 89 be bd 98 a8 3d 9e af 4c be
       -0.22209807 -0.26909631 0.082322575 -0.19988868
0003d0 e3 7c 52 bd 83 dc db 3d 30 4d 22 3e db 08 0d 3e
       -0.051388633 0.10735419 0.15849757 0.1377291
0003e0 18 6e c3 3d 00 1d fe 3d 82 bf 96 3d 9e 77 53 3d
       0.09542483 0.12407875 0.07360746 0.051627748
0003f0 25 46 5d 3e 41 5a 7c 3e e8 75 ef 3c 62 f2 23 3e
       0.2160879 0.24643804 0.029231027 0.1601043

fc3.bias f4 [10]
000000 31 a7 a6 3d 71 47 3b 3d 4e 60 df 3d 09 f8 02 3d
       0.08137358 0.04572243 0.109070405 0.031974826
000010 ab d1 00 bd 4d e5 9d 3d e9 94 13 bc 60 d1 5f bc
       -0.031449955 0.07709751 -0.009007671 -0.013660759
000020 78 db 6c 3d 5c d2 8a bc
       0.05782649 -0.01694601
